Model: "sequential_2"
_________________________________________________________________
Layer (type)                 Output Shape              Param #   
=================================================================
conv2d_6 (Conv2D)            (None, 198, 198, 32)      320       
_________________________________________________________________
max_pooling2d_6 (MaxPooling2 (None, 99, 99, 32)        0         
_________________________________________________________________
conv2d_7 (Conv2D)            (None, 99, 99, 32)        9248      
_________________________________________________________________
max_pooling2d_7 (MaxPooling2 (None, 49, 49, 32)        0         
_________________________________________________________________
conv2d_8 (Conv2D)            (None, 47, 47, 32)        9248      
_________________________________________________________________
max_pooling2d_8 (MaxPooling2 (None, 23, 23, 32)        0         
_________________________________________________________________
flatten_2 (Flatten)          (None, 16928)             0         
_________________________________________________________________
dense_6 (Dense)              (None, 64)                1083456   
_________________________________________________________________
dense_7 (Dense)              (None, 128)               8320      
_________________________________________________________________
dense_8 (Dense)              (None, 10)                1290      
=================================================================
Total params: 1,111,882
Trainable params: 1,111,882
Non-trainable params: 0
_________________________________________________________________
Found 7894 images belonging to 10 classes.
Found 2003 images belonging to 10 classes.
Epoch 1/40
1/8 [==>...........................] - ETA: 0s - loss: 2.2975 - accuracy: 0.06
…
