Model: "sequential"
_________________________________________________________________
Layer (type)                 Output Shape              Param #   
=================================================================
conv2d (Conv2D)              (None, 200, 200, 16)      160       
_________________________________________________________________
max_pooling2d (MaxPooling2D) (None, 100, 100, 16)      0         
_________________________________________________________________
conv2d_1 (Conv2D)            (None, 100, 100, 32)      4640      
_________________________________________________________________
max_pooling2d_1 (MaxPooling2 (None, 50, 50, 32)        0         
_________________________________________________________________
conv2d_2 (Conv2D)            (None, 50, 50, 64)        18496     
_________________________________________________________________
max_pooling2d_2 (MaxPooling2 (None, 25, 25, 64)        0         
_________________________________________________________________
conv2d_3 (Conv2D)            (None, 25, 25, 64)        36928     
_________________________________________________________________
max_pooling2d_3 (MaxPooling2 (None, 12, 12, 64)        0         
_________________________________________________________________
conv2d_4 (Conv2D)            (None, 12, 12, 64)        36928     
_________________________________________________________________
max_pooling2d_4 (MaxPooling2 (None, 6, 6, 64)          0         
_________________________________________________________________
flatten (Flatten)            (None, 2304)              0         
_________________________________________________________________
dense (Dense)                (None, 1024)              2360320   
_________________________________________________________________
dense_1 (Dense)              (None, 512)               524800    
_________________________________________________________________
dense_2 (Dense)              (None, 10)                5130      
=================================================================
Total params: 2,987,402
Trainable params: 2,987,402
Non-trainable params: 0
_________________________________________________________________
Found 7894 images belonging to 10 classes.
Found 2003 images belonging to 10 classes.
Epoch 1/40
1/8 [==>...........................] - ETA: 0s - loss: 2.3092 - accuracy: 0.09
…
