Model: "sequential_1"
_________________________________________________________________
Layer (type)                 Output Shape              Param #   
=================================================================
conv2d_5 (Conv2D)            (None, 200, 200, 16)      160       
_________________________________________________________________
max_pooling2d_5 (MaxPooling2 (None, 100, 100, 16)      0         
_________________________________________________________________
conv2d_6 (Conv2D)            (None, 100, 100, 32)      4640      
_________________________________________________________________
max_pooling2d_6 (MaxPooling2 (None, 50, 50, 32)        0         
_________________________________________________________________
conv2d_7 (Conv2D)            (None, 50, 50, 64)        18496     
_________________________________________________________________
max_pooling2d_7 (MaxPooling2 (None, 25, 25, 64)        0         
_________________________________________________________________
conv2d_8 (Conv2D)            (None, 25, 25, 64)        36928     
_________________________________________________________________
max_pooling2d_8 (MaxPooling2 (None, 12, 12, 64)        0         
_________________________________________________________________
conv2d_9 (Conv2D)            (None, 12, 12, 64)        36928     
_________________________________________________________________
max_pooling2d_9 (MaxPooling2 (None, 6, 6, 64)          0         
_________________________________________________________________
flatten_1 (Flatten)          (None, 2304)              0         
_________________________________________________________________
dense_3 (Dense)              (None, 1024)              2360320   
_________________________________________________________________
dense_4 (Dense)              (None, 512)               524800    
_________________________________________________________________
dense_5 (Dense)              (None, 10)                5130      
=================================================================
Total params: 2,987,402
Trainable params: 2,987,402
Non-trainable params: 0
_________________________________________________________________
Found 7894 images belonging to 10 classes.
Found 2003 images belonging to 10 classes.
Epoch 1/100
1/8 [==>...........................] - ETA: 0s - loss: 2.3011 - accuracy: 0.0
…
