Model: "sequential_1"
_________________________________________________________________
Layer (type)                 Output Shape              Param #   
=================================================================
conv2d_3 (Conv2D)            (None, 198, 198, 32)      320       
_________________________________________________________________
max_pooling2d_3 (MaxPooling2 (None, 99, 99, 32)        0         
_________________________________________________________________
conv2d_4 (Conv2D)            (None, 99, 99, 32)        9248      
_________________________________________________________________
max_pooling2d_4 (MaxPooling2 (None, 49, 49, 32)        0         
_________________________________________________________________
conv2d_5 (Conv2D)            (None, 47, 47, 32)        9248      
_________________________________________________________________
max_pooling2d_5 (MaxPooling2 (None, 23, 23, 32)        0         
_________________________________________________________________
flatten_1 (Flatten)          (None, 16928)             0         
_________________________________________________________________
dense_3 (Dense)              (None, 64)                1083456   
_________________________________________________________________
dense_4 (Dense)              (None, 128)               8320      
_________________________________________________________________
dense_5 (Dense)              (None, 10)                1290      
=================================================================
Total params: 1,111,882
Trainable params: 1,111,882
Non-trainable params: 0
_________________________________________________________________
Found 8009 images belonging to 10 classes.
Found 2013 images belonging to 10 classes.
Epoch 1/40
1/8 [==>...........................] - ETA: 0s - loss: 2.3151 - accuracy: 0.06
…
